…
loss, accuracy = model.evaluate(X_test, Y_test, verbose=False)
print("Testing Accuracy:  {:.4f}".format(accuracy))
##################################################################################################################################
DReqANN Model and Training Process
###################################################################################################################################
Shape of label tensor: (914, 5)
Model: "sequential_18"
_________________________________________________________________
Layer (type) Output Shape Param # 
=================================================================
dense_77 (Dense) (None, 2128) 4496464 
 
dropout_59 (Dropout) (None, 2128) 0 
dense_78 (Dense) (None, 256) 545024 
dropout_60 (Dropout) (None, 256) 0 
dense_79 (Dense) (None, 128) 32896 
dropout_61 (Dropout) (None, 128) 0 
dense_80 (Dense) (None, 5) 645 
=================================================================
Total params: 5,075,029
Trainable params: 5,075,029
Non-trainable params: 0
_________________________________________________________________
None
Epoch 1/100
23/23 - 2s - loss: 1.5489 - accuracy: 0.3625 - val_loss: 1.4664 - val_accuracy: 0.
3880 - lr: 0.0010 - 2s/epoch - 97ms/step
Epoch 2/100
23/23 - 2s - loss: 1.4323 - accuracy: 0.3844 - val_loss: 1.3579 - val_accuracy: 0.
…
